MyPINNs/model.pth (torch, 19050 bytes, 19 tensors)

weight f4 [16, 2]
0	0xbeb0cfc4	-0.34533513
1	0x3f0dc8e7	0.5538468
2	0x3ec379b4	0.3817879
3	0x3ee379e9	0.44428948
4	0xbeb0156c	-0.34391344
5	0xbdfedc67	-0.12444382
6	0xbfb4dd67	-1.4130067
7	0xbf7a8f4f	-0.9787492
8	0x3e6e8f13	0.23296766
9	0xbeec3b32	-0.46138912
10	0x3ec47d00	0.38376617
11	0xbda7f63e	-0.08201264
12	0xbead36d1	-0.33830884
13	0x3e8a23dc	0.26980484
14	0x3d2d07de	0.04224383
15	0x3e7ae92a	0.24503008
16	0x3f2b8309	0.6699682
17	0xbf85eec7	-1.0463494
18	0x3f0fe0af	0.56202215
19	0x3fe2c270	1.7715588
20	0x3eb33532	0.35001522
21	0x3e3700bc	0.17871374
22	0x3e96e900	0.2947464
23	0xbf6132a9	-0.87967926
24	0xbf980c39	-1.187873
25	0x3f4b3d72	0.79390633
26	0xbd8ee3a3	-0.06977012
27	0x3eafedc7	0.34361097
28	0xbe96863f	-0.29399297
29	0x3ed8d907	0.4235308
30	0x3edca2bb	0.43092903
31	0x3f17ecc0	0.59345627

bias f4 [16]
0	0x3f0bfdbe	0.54684055
1	0x3ed62e77	0.41832325
2	0xbe00fbdb	-0.12596075
3	0x3f6578ec	0.8963764
4	0xbf044658	-0.51669836
5	0x3e408711	0.18801524
6	0xbe074a0f	-0.13211845
7	0xbed56888	-0.41681314
8	0xbdf50815	-0.11964432
9	0x3eee6442	0.46560866
10	0x3efa9fff	0.48950192
11	0xbdb6c11e	-0.08923553
12	0xbf7228de	-0.9459361
13	0xbe95a5b6	-0.2922799
14	0x3ecfcba6	0.4058506
15	0x3f340c25	0.7033103

weight f4 [16, 16]
0	0xbd8bb1fe	-0.06821059
1	0x3e1a3d00	0.15062332
2	0xbe4a95a1	-0.19783641
3	0x3d68fa96	0.056879602
4	0x3dca4325	0.09876088
5	0x3d3df75f	0.04637849
6	0xbe58cfb7	-0.21172987
7	0xbc018bbf	-0.007906853
8	0xbe8e8940	-0.27839088
9	0xbe42e9e3	-0.19034533
10	0xbd4eef97	-0.05052146
11	0xbe465689	-0.19368948
12	0xbe5351ea	-0.20636716
13	0xbe60acc5	-0.21940906
14	0xbe9d14d7	-0.30679962
15	0x3e53033c	0.20606703
16	0x3e221b2e	0.1583068
17	0x3d414bb3	0.047191333
18	0x3e339350	0.17536664
19	0x3ed6f2e4	0.41982186
20	0x3e09e817	0.13467441
21	0xbebce222	-0.36891276
22	0x3e877ac0	0.26460838
23	0xbdfb9124	-0.12283543
24	0xbd1b1370	-0.037860334
25	0x3eda07e6	0.4258415
26	0xbdcbf3e4	-0.09958628
27	0xbece2521	-0.40262702
28	0x3f1ca173	0.6118385
29	0x3e0c4f8f	0.13702224
30	0x3d7ee42b	0.062229317
31	0xbde573aa	-0.11203702
32	0xbea2a0ba	-0.3176325
33	0x3e9818f8	0.2970655
34	0xbc6b6015	-0.014366169
35	0xbf1267ab	-0.57189435
36	0x3e048d7e	0.129446
37	0x3e45eb2c	0.19327992
38	0x3e0ef91c	0.13962215
39	0x3e9dcfae	0.3082251
40	0xbaf7fc80	-0.0018919855
41	0x3ed46987	0.4148676
42	0xbddf6f41	-0.10909892
43	0xbe216c4a	-0.15763965
44	0xbd42ed92	-0.047589846
45	0xbe112027	-0.14172421
46	0xbe854dcc	-0.26035917
47	0x3d89b6be	0.067243084
48	0x3e8f9211	0.28041127
49	0xbe830e7e	-0.25596994
50	0x3e6c4602	0.23073581
51	0xbe6e161f	-0.23250626
52	0xbeb77d8f	-0.3583798
53	0xbe671540	-0.225667
54	0x3e12b404	0.14326483
55	0x3d81992d	0.06328044
56	0x3e754918	0.23953664
57	0x3ea80e50	0.3282342
58	0x3cd03c37	0.025419338
59	0xbf62d308	-0.8860326
60	0x3df31fb8	0.11871284
61	0x3e980a8b	0.29695544
62	0x3ea0cb22	0.31404978
63	0x3d70b8de	0.058770053
64	0xbe733c41	-0.23753454
65	0x3e95d762	0.29265887
66	0xbbe1cf74	-0.0068911854
67	0xbe6881fe	-0.22705838
68	0x3e63df90	0.22253251
69	0x3d24defd	0.04025172
70	0xbd42bed4	-0.04754527
71	0xbd801bce	-0.06255303
72	0xbe462a9f	-0.19352196
73	0xbd52d64b	-0.051473897
74	0x3eb73c11	0.35788015
75	0xbe48451d	-0.19557615
76	0xbe9e0b57	-0.30868027
77	0x3d9847a9	0.07435543
78	0x3dc72f04	0.097257644
79	0x3cd0dd40	0.025496125
80	0xbd789eed	-0.06069844
81	0x3e22477d	0.15847583
82	0xbc09d18a	-0.008411774
83	0xbf058201	-0.52151495
84	0x3dae767c	0.08518693
85	0x3db0a054	0.0862433
86	0xbe289b40	-0.16465473
87	0x3e84ca19	0.25935438
88	0x3dc41897	0.09575003
89	0x3e669506	0.22517785
90	0xbe03b639	-0.12862481
91	0xbe567465	-0.20942838
92	0xbe377909	-0.17917265
93	0x3da51835	0.08061258
94	0xbe563a4c	-0.20920676
95	0xbc6f8b50	-0.014620617
96	0x3ecdce67	0.40196535
97	0xbd4369a1	-0.047708157
98	0x3e4c2287	0.19935046
99	0x3d9d4d20	0.07680726
100	0xbc5665c9	-0.013085791
101	0xbe82dd03	-0.25559244
102	0x3d83dac6	0.06438212
103	0x3e222fa0	0.1583848
104	0x3bee9df2	0.007282012
105	0x3e6c1565	0.23055036
106	0x3e101009	0.14068617
107	0xbf578b95	-0.8419736
108	0x3ccf7643	0.025324946
109	0x3ca6a922	0.02034432
110	0x3e9194e3	0.28433904
111	0x3e36e775	0.17861731
112	0xbe415464	-0.18879849
113	0x3e11f803	0.14254765
114	0xbd82deef	-0.063901775
115	0x3db28f72	0.08718766
116	0x3ea256ba	0.31706792
117	0x3d2892d9	0.04115567
118	0xbdb942d0	-0.090459466
119	0x3d98ace5	0.07454852
120	0x3e510423	0.20411734
121	0x3d82b9bf	0.063830845
122	0x3dec1f08	0.11529356
123	0x3dc31b35	0.09526674
124	0xbed8c562	-0.4233809
125	0x3d6a5d5f	0.057217952
126	0xbe20269f	-0.15639733
127	0xbcc7c978	-0.02438806
128	0x3e18e2e2	0.14930299
129	0xbdbae3d4	-0.09125486
130	0x3e36b18e	0.17841169
131	0xbd4400ff	-0.047852512
132	0x3dde5b6b	0.1085728
133	0x3e40eaaa	0.18839517
134	0xbf0df489	-0.55451256
135	0x3e52a13c	0.20569319
136	0x3ebd404b	0.36963114
137	0xbd78edce	-0.060773663
138	0x3eb6dfc0	0.35717583
139	0x3f043a73	0.51651686
140	0xbf3851f0	-0.72000027
141	0xbe2fe7c4	-0.17178255
142	0xbc8ea7ac	-0.017413937
143	0x3d1a3093	0.03764398
144	0x3edd12b8	0.43178344
145	0xbec81621	-0.39079383
146	0x3df80655	0.12110583
147	0xbf0bb040	-0.5456581
148	0xbf2bf9af	-0.6717786
149	0xbe6b07e4	-0.22952229
150	0x3e890a46	0.2676565
151	0x3cc19ae5	0.02363343
152	0x3ec8458a	0.39115554
153	0x3f06caf5	0.5265344
154	0xbe046694	-0.12929755
155	0xbe66bc76	-0.2253283
156	0xbe200152	-0.15625504
157	0xbde42ddd	-0.1114156
158	0x3ec03693	0.37541637
159	0xbf34ab2f	-0.70573705
160	0x3e9fd244	0.31215107
161	0xbe356d78	-0.1771754
162	0xbcd1f186	-0.025627863
163	0x3f1a025a	0.6015984
164	0xbe66e55d	-0.22548433
165	0x3dcff542	0.10154201
166	0x3e0861a0	0.13318491
167	0x3cf354b2	0.029703472
168	0xbc41f40b	-0.0118379695
169	0xbe9b829d	-0.30373088
170	0xbe377387	-0.17915164
171	0x3ee5cc4d	0.44882432
172	0xbe9540db	-0.29151043
173	0x3da9cdac	0.08291182
174	0x3e7f9a15	0.24961121
175	0xbe9220fc	-0.2854079
176	0x3e02bcbe	0.12767312
177	0xbe73d046	-0.23809919
178	0x3e4fae9e	0.20281455
179	0x3dba16e6	0.09086399
180	0xbe88f2db	-0.26747784
181	0xbe43e710	-0.19131112
182	0x3dce841e	0.10083793
183	0xbe9994af	-0.2999625
184	0x3e7d26ab	0.24721782
185	0x3d7abe34	0.061216548
186	0xbe89f6c3	-0.26946077
187	0x3d9cef9f	0.076628916
188	0xbc8e86b6	-0.01739822
189	0x3e59c890	0.21267915
190	0xbd0c8606	-0.034307502
191	0xbec4d71b	-0.38445362
192	0xbd22a706	-0.039710067
193	0x3d7b781d	0.061393846
194	0xbe7cb687	-0.24679004
195	0x3d211595	0.039327223
196	0xbe3bb8e2	-0.18332246
197	0xbcf93bbd	-0.030423993
198	0xbe0c5e1f	-0.1370778
199	0xbdd002b7	-0.10156768
200	0xbe30cb3a	-0.17265025
201	0x3de30c1e	0.110862955
202	0xbd845575	-0.06461612
203	0xbe9c23b1	-0.3049598
204	0x3e33ce9b	0.17559282
205	0x3e97f90e	0.296822
206	0x3e2fe608	0.17177594
207	0xbe8cd903	-0.27509317
208	0x3ea643d7	0.32473633
209	0xbe78faee	-0.24314472
210	0x3eb8bd8a	0.36082107
211	0xbe8245ee	-0.25443977
212	0xbec35b02	-0.3815537
213	0xbec8501a	-0.39123613
214	0x3d23ac2e	0.039959125
215	0x3e1692ef	0.14704488
216	0x3d190913	0.03736217
217	0xbdc42e20	-0.0957911
218	0xbe920d7f	-0.28525922
219	0xbe2eb1e8	-0.17060053
220	0xbe15723b	-0.14594357
221	0xbde126c8	-0.10993725
222	0x3da8f699	0.0825016
223	0xbe622795	-0.22085412
224	0xb8d9a19e	-0.0001037747
225	0x3ee7584c	0.45184553
226	0xbec8356a	-0.39103252
227	0xbf50f763	-0.8162748
228	0x3e058795	0.13040002
229	0xbd0d0a34	-0.03443356
230	0xbd42f913	-0.047600817
231	0xbc9fa521	-0.01948792
232	0xbeed718c	-0.46375692
233	0x3ee03cc7	0.4379637
234	0x3e3aaa38	0.18228996
235	0xbeb9afdb	-0.3626698
236	0x3f410ebd	0.75413114
237	0xbdb80670	-0.08985603
238	0x3cd44479	0.025911557
239	0x3e40937d	0.18806262
240	0xbe8e33b5	-0.27773824
241	0x3cb8e20f	0.02256873
242	0x3cfb33ef	0.030664412
243	0xbe909827	-0.28241083
244	0x3e8d7a5f	0.27632424
245	0x3dafe39e	0.085883364
246	0x3e7adc66	0.24498138
247	0x3e366127	0.17810498
248	0xbe36d345	-0.1785403
249	0x3e46612d	0.19373007
250	0x3e0ae9eb	0.13565795
251	0xbe2c527e	-0.16828343
252	0x3e6c5e69	0.2308289
253	0xbe82bcb5	-0.25534597
254	0xbec94534	-0.3931061
255	0x3e11e422	0.14247182

bias f4 [16]
0	0x3d3e0717	0.04639348
1	0xbed178e8	-0.40912557
2	0xbe1278b5	-0.14303859
3	0x3e0657c8	0.13119423
4	0x3e887a3b	0.26655754
5	0x3e0131fc	0.12616724
6	0x3e0a0225	0.1347738
7	0x3e079f34	0.13244325
8	0x3e6ea323	0.23304419
9	0x3e14cd15	0.14531358
10	0x3e9ef81b	0.31048664
11	0x3dc9b8ef	0.098497264
12	0x3ea0d6af	0.3141379
13	0xbd08e219	-0.03341875
14	0x3eaada39	0.33369616
15	0x3c1934c8	0.009350963

weight f4 [16, 16]
0	0xbee6b7ee	-0.45062202
1	0x3ef03af9	0.46919993
2	0x3ea190b6	0.31555718
3	0x3f05e8d9	0.5230842
4	0xbec1fc4c	-0.378878
5	0x3e1fad5f	0.1559348
6	0x3ea8fe36	0.33006448
7	0xbe381543	-0.1797686
8	0xbf05bca2	-0.52240956
9	0x3efcee14	0.4940039
10	0xbd986cd9	-0.07442636
11	0x3da72627	0.08161574
12	0x3edc17ef	0.4298701
13	0xbe330ec1	-0.17486097
14	0x3f105a6e	0.56387985
15	0x3e6b4ec4	0.22979265
16	0x3e7b7f64	0.24560314
17	0xbdd006b9	-0.10157532
18	0x3f12ebfb	0.5739133
19	0x3e948178	0.29005027
20	0x3d87f5c7	0.06638675
21	0x3ede834a	0.4345954
22	0xbda3cca6	-0.07998018
23	0xbe7cda2a	-0.24692598
24	0xbe991278	-0.29896903
25	0x3e9ab934	0.30219424
26	0xbee6d1b9	-0.4508188
27	0xbe71fd37	-0.2363175
28	0xbeab99a4	-0.33515656
29	0x3d80144c	0.06253871
30	0x3f96e806	1.1789558
31	0x3ec8bdb9	0.39207247
32	0x3eca4264	0.39503777
33	0x3e4af274	0.19819051
34	0xbcc88d00	-0.024481297
35	0xbdf79f3b	-0.12090918
36	0xbd3fc8db	-0.04682241
37	0xbd10ee15	-0.035383303
38	0xbe9078a9	-0.28217056
39	0x3d9809a1	0.074237116
40	0xbe3b3513	-0.18281965
41	0xbf18acba	-0.5963856
42	0x3e0d7b11	0.13816477
43	0xbf15803e	-0.5839881
44	0x3d885aac	0.06657919
45	0xbf4bda77	-0.79630226
46	0xbdc57119	-0.09640712
47	0x3e33f112	0.1757243
48	0x3da63778	0.081160486
49	0xbec1182d	-0.37713757
50	0x3d8ee805	0.06977848
51	0xbdb909c5	-0.090350665
52	0x3e17527f	0.14777564
53	0x3ebbfa35	0.3671433
54	0xbdb9c990	-0.09071648
55	0x3dcd1d8d	0.10015402
56	0xbd43b0f2	-0.04777617
57	0xbe8f5d30	-0.28000784
58	0xbe6e9ad0	-0.23301244
59	0x3d3b5c46	0.045742296
60	0x3de910f4	0.11380187
61	0x3d0c49dc	0.034250125
62	0x3dde5f9b	0.10858079
63	0x3da22779	0.07917685
64	0xbe0c3e6a	-0.13695684
65	0x3e336ee1	0.17522766
66	0xbdc67167	-0.096895985
67	0x3e852f9a	0.2601288
68	0xbea5a0f0	-0.32349348
69	0xbebb6fe6	-0.3660881
70	0x3da1cb0c	0.07900056
71	0xbe586a0a	-0.211342
72	0xbe01ed27	-0.12688123
73	0x3dd88490	0.10572159
74	0x3e66fe63	0.22557978
75	0x3e6d4c86	0.23173723
76	0x3e263514	0.16231185
77	0xbe2e05cf	-0.16994403
78	0xbd7c45e0	-0.061590075
79	0xbdae272b	-0.085035644
80	0x3c4464c8	0.011986919
81	0x3db25767	0.08708077
82	0x3eeb97e8	0.46014333
83	0x3dafa541	0.085764416
84	0x3e2dac59	0.16960277
85	0x3e1d50ef	0.15362905
86	0xbe5b583f	-0.21420382
87	0xbd23ef99	-0.04002342
88	0xbe326129	-0.17419876
89	0xbec3c752	-0.38238007
90	0xbefb3ba1	-0.4906893
91	0xbe97a043	-0.29614457
92	0x3dac063c	0.083996266
93	0xbe9aff5d	-0.30272952
94	0x3f02ccfc	0.5109403
95	0x3ed53a9e	0.41646284
96	0x3da7a688	0.0818606
97	0x3de66965	0.11250571
98	0xbce4cfe9	-0.02793117
99	0x3d9c5a13	0.07634368
100	0xbe5386c1	-0.20656873
101	0xbe32a197	-0.17444454
102	0x3e0913ee	0.13386509
103	0x3e38181e	0.1797795
104	0xbc2c6cee	-0.010524018
105	0x3edf4c02	0.43612677
106	0x3e88f056	0.26745862
107	0xbe80272c	-0.25029886
108	0x3e091dd6	0.13390288
109	0x3e48bd03	0.19603352
110	0xbe44a979	-0.19205274
111	0xba669aa2	-0.0008796846
112	0xbe8ce337	-0.275171
113	0x3ae19753	0.0017211236
114	0x3d940027	0.072265916
115	0xbeeca744	-0.46221364
116	0xbe82abb4	-0.25521624
117	0x3df10860	0.117691755
118	0xbef129d2	-0.4710222
119	0x3e708f48	0.23492157
120	0xbe125c21	-0.14292957
121	0x3f32c686	0.6983417
122	0x3db0f1f4	0.08639899
123	0xbc8b488e	-0.01700237
124	0xbc1bcdd3	-0.009509522
125	0xbdb0df0e	-0.08636294
126	0xbee40a3e	-0.44539064
127	0xbe8af214	-0.27137816
128	0xbd4b7b44	-0.049678102
129	0xbe92c61d	-0.28666773
130	0x3ee45094	0.44592726
131	0x3dcbe999	0.099566646
132	0x3d2b16ee	0.041769914
133	0x3de5e34a	0.112249926
134	0xbe33b90f	-0.17551063
135	0x3e03746d	0.12837382
136	0x3ea35c1e	0.31906217
137	0xbee07b08	-0.43843865
138	0xbe9327ff	-0.28741452
139	0xbef5fa71	-0.48042634
140	0xbe83209e	-0.25610822
141	0xbf1bee3f	-0.6091041
142	0x3e9a510c	0.3013996
143	0x3e710e29	0.23540558
144	0x3cfb9892	0.0307124
145	0xbe28eb73	-0.16496067
146	0x3e6f316c	0.23358697
147	0x3ec4b259	0.38417318
148	0xbdd53182	-0.104098335
149	0x3cb1ad53	0.021689093
150	0x3e059f31	0.13049008
151	0xbe812d74	-0.2522999
152	0xbef57dc2	-0.47947508
153	0xbf246af2	-0.64225686
154	0xbeb35bca	-0.35030967
155	0x3e09e567	0.13466416
156	0xbe35264c	-0.1769039
157	0xbe552c6c	-0.20817727
158	0x3f07fb14	0.5311749
159	0x3e32f28c	0.17475337
160	0x3d2e2e10	0.042524397
161	0x3ee36ea5	0.44420353
162	0xbe11d2a9	-0.14240517
163	0x3ebc7eac	0.36815393
164	0xbe03320b	-0.12812059
165	0xbe34f8f2	-0.1767309
166	0x3de53359	0.111914344
167	0xbe6ba728	-0.23012984
168	0xbdaa88a6	-0.08326845
169	0x3e6308ed	0.22171374
170	0x3e75d016	0.2400516
171	0x3d92d7b1	0.07170046
172	0xbdd26281	-0.102726944
173	0x3e8062d9	0.25075415
174	0xbea89936	-0.3292939
175	0xbe959e67	-0.29222414
176	0x3e56d246	0.2097865
177	0x3da272ee	0.07932077
178	0xbe57bbcf	-0.21067737
179	0xbe1957e5	-0.14974935
180	0x3e0ea028	0.13928282
181	0x3de62b58	0.11238736
182	0xbe4e1a8f	-0.20127319
183	0x3d9b3842	0.0757909
184	0x3e4ee861	0.20205833
185	0xbf5007cc	-0.812619
186	0x3e0c2b1d	0.13688321
187	0xbe8be617	-0.27323982
188	0xbe490e0f	-0.19634269
189	0xbe01a20f	-0.12659477
190	0x3ee89529	0.454263
191	0xbd1cfa91	-0.038324896
192	0xbc2ad80a	-0.010427484
193	0x3eece5ca	0.46269065
194	0x3d941da8	0.07232219
195	0xbe5ba5b3	-0.21449928
196	0xbe1ec297	-0.15503918
197	0x3d94e49b	0.072701655
198	0x3e0e5ffc	0.13903803
199	0x3c74c0d2	0.01493855
200	0xbeba3e37	-0.3637559
201	0x3f460edf	0.7736644
202	0xbe2c6d4e	-0.16838571
203	0xbe2cbf4e	-0.16869852
204	0x3ee5dc9e	0.4489488
205	0xbe0349f9	-0.12821187
206	0x3e1c3c61	0.15257408
207	0xbe4ec05a	-0.20190564
208	0xbda567c9	-0.08076436
209	0x3c7d7f53	0.015472251
210	0xbe4b2c93	-0.19841222
211	0x3cc5dacf	0.024152188
212	0x3d28df9b	0.04122887
213	0xbdbed6e2	-0.093183294
214	0x3eb6eca4	0.35727417
215	0x3e3306a5	0.17483003
216	0xbe02d14a	-0.1277515
217	0x3f4c406f	0.7978582
218	0x3def20be	0.11676167
219	0x3b94e797	0.004544209
220	0x3d83276c	0.064040035
221	0xbdae992b	-0.08525308
222	0x3ba673ab	0.0050797067
223	0xbc60da60	-0.01372394
224	0x3e4acdeb	0.19805114
225	0xbe9ee74a	-0.31035835
226	0x3d9db7e7	0.07701092
227	0x3e37aa91	0.1793616
228	0x3cbf3a08	0.023343101
229	0xbc0bbe2b	-0.008529226
230	0x3e099124	0.13434273
231	0x3c840510	0.016115695
232	0x3e2ebdc8	0.17064583
233	0xbeeeced7	-0.4664218
234	0x3d9ddf44	0.077086
235	0xbe23ee17	-0.16008793
236	0x3dc65bbe	0.09685467
237	0xbe091572	-0.13387087
238	0xbe10762f	-0.14107583
239	0x3e8b0875	0.2715489
240	0x3e783173	0.24237613
241	0xbe9884c2	-0.29788786
242	0x3ed11594	0.40836775
243	0xbe4ff35b	-0.20307676
244	0x3ea9cb5f	0.33162972
245	0x3e838b11	0.25692037
246	0xbd8750aa	-0.06607182
247	0x3e665ca9	0.22496285
248	0x3e913280	0.2835884
249	0xbebca58d	-0.36845055
250	0xbec28699	-0.37993315
251	0xbe4d5b51	-0.20054366
252	0xbd1f6148	-0.038911134
253	0xbe37288f	-0.17886566
254	0x3c085618	0.008321308
255	0x3e08fce2	0.13377717

bias f4 [16]
0	0xbd42242a	-0.04739777
1	0xbee155e7	-0.4401085
2	0x3e83bc84	0.25729764
3	0x3e8c9558	0.2745769
4	0xbad77d0b	-0.0016440464
5	0xbc334cfd	-0.010943648
6	0xbc57c6bb	-0.01316994
7	0xbeb55b08	-0.35421014
8	0x3ad0ea7c	0.0015939022
9	0x3e2697ec	0.16268891
10	0xbdd5e38d	-0.104437925
11	0x3e25e050	0.1619885
12	0x3e46ffcd	0.19433518
13	0x3c90c716	0.017673057
14	0x3e3532b3	0.17695121
15	0x3e2b49bb	0.16727345

weight f4 [16, 16]
0	0x3e2a5336	0.16633305
1	0x3e752b66	0.23942336
2	0x3dd268a0	0.10273862
3	0x3ea2564d	0.31706467
4	0x3e2e22c1	0.17005445
5	0xbe54dfb4	-0.20788461
6	0xbe7ecdf4	-0.24883252
7	0xbf18c45f	-0.5967464
8	0xbe34c461	-0.17653038
9	0x3f411faa	0.7543894
10	0x3e82b534	0.25528872
11	0xbde3e58a	-0.111277655
12	0xbe94b336	-0.29042977
13	0xbd986496	-0.0744106
14	0x3e97ade7	0.29624864
15	0xbddd6610	-0.108104825
16	0xbeb8590b	-0.36005434
17	0x3e85b9cd	0.26118317
18	0xbdf96ecd	-0.12179337
19	0xbeef86b8	-0.4678247
20	0x3ef73f21	0.4829035
21	0xbd2f21e2	-0.042756923
22	0x3e4a02d3	0.1972764
23	0xbcc61036	-0.024177652
24	0xbec7fa80	-0.39058304
25	0xbeecb39e	-0.46230787
26	0x3ecd391d	0.40082636
27	0xbe9f2c00	-0.31088257
28	0x3de81933	0.11332931
29	0xbd623e12	-0.055234976
30	0xbd0d85ba	-0.03455136
31	0xbee91ff6	-0.45532197
32	0x3f10e9ec	0.56606936
33	0xbc8a774e	-0.016902592
34	0xbf2a65a0	-0.6656132
35	0xbde8f5de	-0.113750204
36	0x3c9c1b46	0.019055974
37	0xbecace43	-0.3961049
38	0x3dd7f0aa	0.1054395
39	0x3dc43631	0.09580649
40	0xbe3dd5e7	-0.18538629
41	0x3e12ab00	0.14323044
42	0x3ed6053e	0.41800874
43	0xbf155955	-0.58339435
44	0x3ec8cfdf	0.39221093
45	0x3e764ac0	0.24051952
46	0xbefa481b	-0.48883137
47	0xbe6e2a80	-0.232584
48	0x3d093a3c	0.033502802
49	0xbe21bc4b	-0.15794484
50	0xbdbacc35	-0.09120981
51	0xbe80f894	-0.2518965
52	0x3ecf620e	0.40504497
53	0xbe65f34e	-0.22456095
54	0x3ee13fde	0.4399404
55	0x3e04eee1	0.1298175
56	0xbd6f46b7	-0.05841705
57	0xbeb2985b	-0.34881863
58	0x3ed865e6	0.42265242
59	0xbe840b3f	-0.2578983
60	0x3e9c4a5e	0.30525488
61	0x3dfa9f90	0.122374654
62	0xbdc65b7a	-0.096854165
63	0xbeaf58f9	-0.34247568
64	0xbe34642b	-0.17616336
65	0x3de23ab0	0.1104635
66	0xbf4c5e55	-0.7983144
67	0x3e0333c8	0.12812722
68	0xbd0e5996	-0.034753405
69	0xbe3aca2f	-0.1824119
70	0x3e7ebbb3	0.24876289
71	0xbd214e91	-0.039381567
72	0xbe5aacf1	-0.21355034
73	0x3e060273	0.13086872
74	0x3e974098	0.2954147
75	0xbed5a3fe	-0.4172668
76	0xbe7af979	-0.24509229
77	0xbd3ed08a	-0.046585597
78	0x3dd9cddf	0.1063497
79	0xbe41322f	-0.188668
80	0xbd3f6d51	-0.04673511
81	0xbd8860e5	-0.06659106
82	0x3dbbcfcf	0.09170496
83	0x3dc1ff85	0.094725646
84	0xbe624f8e	-0.2210066
85	0x3ee60bba	0.44930822
86	0xbdc5d8c6	-0.09660487
87	0xbe8bc14a	-0.27295905
88	0x3eb40b9d	0.3516511
89	0x3e7df8fc	0.24802011
90	0xbe99634b	-0.29958567
91	0x3e56905b	0.20953505
92	0xbed2021f	-0.41017243
93	0xbe8bbe8f	-0.27293822
94	0x3e37f1ee	0.17963383
95	0x3eaabe7d	0.33348456
96	0xbe287af1	-0.16453148
97	0xbe2074f9	-0.15669622
98	0xbe05f7e1	-0.1308284
99	0x3d4e51c5	0.05037095
100	0xbdfc6e36	-0.123257086
101	0xbe015a0f	-0.12632011
102	0xbe9d1a51	-0.3068414
103	0x3d87d478	0.06632322
104	0xbe777b5a	-0.24168149
105	0x3e6de709	0.23232664
106	0xbdb92c03	-0.09041598
107	0xbe8a44f7	-0.2700574
108	0xbe268c2f	-0.16264413
109	0xbec25e16	-0.37962407
110	0xbd8a3891	-0.067490704
111	0x3c86114c	0.01636567
112	0x3f13f369	0.5779329
113	0xbd744646	-0.05963733
114	0xbe8ae312	-0.27126366
115	0xbec62699	-0.38701323
116	0xbda8fb15	-0.08251015
117	0xbbe1a7c9	-0.0068864566
118	0x3e8728ae	0.26398224
119	0x3ec631a3	0.38709745
120	0xbd1c186a	-0.03810922
121	0x3dc4904e	0.095978364
122	0x3ef60ebb	0.48058113
123	0xbeba02ff	-0.3633041
124	0x3f0dc728	0.55382013
125	0x3eae56fd	0.34050742
126	0xbe20d3e2	-0.15705827
127	0xbeb144b5	-0.34622732
128	0xbe279e29	-0.16368927
129	0xbe31b834	-0.17355424
130	0x3ea30361	0.31838515
131	0x3eee17a9	0.46502426
132	0xbe996673	-0.29960975
133	0x3df3f2af	0.119115226
134	0xbe05600e	-0.13024923
135	0xbe04ae46	-0.12957105
136	0x3ed5ec0a	0.41781646
137	0x3eadc273	0.33937415
138	0xbe29bdda	-0.16576329
139	0x3e6ad2ef	0.22932027
140	0x3d85b49f	0.06528591
141	0xbe921db9	-0.28538302
142	0x3e7bf3ca	0.24604717
143	0x3ec37940	0.38178444
144	0xbe06935a	-0.13142148
145	0xbe7136c8	-0.23556054
146	0x3e4b1371	0.19831635
147	0x3e023dde	0.12718913
148	0xbe85b4d5	-0.26114526
149	0xbef81642	-0.4845448
150	0xbdceaa0b	-0.10091027
151	0x3dd0cae9	0.10194952
152	0xbe9d54b3	-0.30728683
153	0x3e007b17	0.12546955
154	0x3ea51d91	0.3224912
155	0x3e4775a0	0.19478464
156	0xbeff72f6	-0.49892396
157	0xbe671e2f	-0.22570108
158	0x3e68f44c	0.22749442
159	0xbe43eb0b	-0.1913263
160	0xbd5eab7c	-0.05436276
161	0xbcbdd78a	-0.023174066
162	0xbe5a715c	-0.21332306
163	0xbe8a3ec8	-0.27001023
164	0x3ecf365e	0.40471166
165	0xbe894bfd	-0.26815787
166	0x3d6c8b30	0.057749927
167	0xbc7a86f3	-0.015290963
168	0xbe93b1e2	-0.2884665
169	0xbdb7abda	-0.08968325
170	0x3ec185e0	0.3779745
171	0xbeca1395	-0.39468065
172	0x3e5cb066	0.21551666
173	0xbd188a8f	-0.037241515
174	0xbeb792af	-0.35854098
175	0xbed79675	-0.42106977
176	0xbe5cc1a4	-0.21558243
177	0x3e216f7e	0.15765187
178	0xbec5e4b4	-0.3865105
179	0x3e7ea102	0.24866107
180	0x3e089188	0.13336766
181	0xbe313dec	-0.17308778
182	0xbe1971c3	-0.14984803
183	0xbdbc062f	-0.09180867
184	0x3dd266ed	0.10273538
185	0x3d4ab95b	0.049493175
186	0xbe3743a7	-0.17896901
187	0xbe35fa93	-0.17771368
188	0xbe29da07	-0.16587077
189	0xbe4060b6	-0.18786892
190	0x3e2c601b	0.16833536
191	0x3e2efc4f	0.17088436
192	0xbef21e9b	-0.47288975
193	0x3ebfad8d	0.37437096
194	0xbe1f1f26	-0.15539226
195	0x3e98f0cc	0.29871213
196	0x3bde5f39	0.006786254
197	0xbe46c641	-0.19411565
198	0x3df390c2	0.11892845
199	0xbd01916a	-0.03163282
200	0xb983a364	-0.00025108003
201	0x3e0b16ac	0.13582867
202	0x3dd097f8	0.10185236
203	0xbe2b34fc	-0.1671943
204	0xbeaef356	-0.34170026
205	0xbe254d8c	-0.16142863
206	0x3ea4d37c	0.321926
207	0xbed22de1	-0.41050628
208	0xbf2196a3	-0.6312048
209	0x3f07958b	0.5296256
210	0xbf277fa5	-0.65429145
211	0x3e9e4fd6	0.30920285
212	0xbd017c29	-0.03161255
213	0xbea67baf	-0.32516238
214	0x3e080eab	0.13286845
215	0x3e8fe0b0	0.2810111
216	0xbd998e77	-0.07497876
217	0xbdf6ce3d	-0.120510556
218	0x3ea64abb	0.3247889
219	0xbe4eeefa	-0.2020835
220	0xbe47ea6d	-0.1952302
221	0xbc6dc7e4	-0.01451299
222	0xbdfdaa2b	-0.123859726
223	0xbe9b1744	-0.30291188
224	0x3e0e164d	0.13875695
225	0x3f049b5d	0.51799566
226	0xbdb587e1	-0.088638075
227	0x3e347c03	0.17625432
228	0xbe4f1edc	-0.20226616
229	0xbea686d3	-0.32524738
230	0x3dc1c9e5	0.094623365
231	0xbed9beff	-0.4252853
232	0xbdfb1035	-0.122589506
233	0x3e7b6b0e	0.24552557
234	0xbe0849f5	-0.13309462
235	0xbf034568	-0.5127778
236	0xbea2242e	-0.31668228
237	0x3e4243f1	0.1897123
238	0x3e3938ac	0.18088025
239	0x3d50374b	0.05083398
240	0xbd5be5d8	-0.053685993
241	0x3e8f1b84	0.2795068
242	0xbd1c1466	-0.03810539
243	0x3d691eef	0.056914266
244	0xbc07df82	-0.0082930345
245	0x3e2e251d	0.17006345
246	0xbdfff77f	-0.12498378
247	0x3e2d466d	0.16921397
248	0x3de8208d	0.113343336
249	0x3e0f8c0f	0.14018272
250	0x3bfc041f	0.007690921
251	0xbe110b9d	-0.14164586
252	0xbb74a4e1	-0.003732972
253	0xbe6efbf2	-0.23338297
254	0xbe93fbf4	-0.28903162
255	0x3d9df776	0.07713215

bias f4 [16]
0	0x3e80ad06	0.25132006
1	0x3e972906	0.29523486
2	0xbdca4e6c	-0.09878239
3	0xbe16475d	-0.1467566
4	0x3d84664d	0.06464825
5	0xbbf587c4	-0.007492991
6	0xbe95accf	-0.29233405
7	0xbe67241b	-0.22572367
8	0xbda76515	-0.08173577
9	0xbe0ccdaf	-0.13750337
10	0x3e1bee38	0.15227592
11	0x3da3f9a9	0.08006603
12	0xbe217286	-0.15766343
13	0x3e8d82a0	0.2763872
14	0x3e4171a6	0.1889101
15	0x3dd4a48a	0.10382946

weight f4 [16, 16]
0	0xbe937ab5	-0.28804556
1	0xbe950ce6	-0.29111403
2	0x3caa53a4	0.020791836
3	0xbe8d4cde	-0.27597708
4	0xbe043a0f	-0.12912773
5	0xbe084f93	-0.13311605
6	0x3e23bc4f	0.15989803
7	0x3e408ebf	0.18804453
8	0x3ebe9d53	0.37229404
9	0xbe48fadb	-0.19626944
10	0xbe72fb43	-0.23728661
11	0x3dfe5c63	0.12419965
12	0x3e485f5f	0.19567631
13	0xbdde26c6	-0.10847239
14	0x3e407905	0.18796165
15	0x3c63c4d9	0.013901913
16	0xbe2ff447	-0.17183028
17	0x3f207dee	0.62692153
18	0x3e9d0be0	0.30673122
19	0x3f4826e2	0.7818433
20	0x3f52e52b	0.8238093
21	0xbf1350a9	-0.5754495
22	0xbdc33aae	-0.09532677
23	0x3e9c2ab6	0.30501336
24	0xbf5c099c	-0.8595216
25	0x3ce5f0a4	0.028068848
26	0x3f4186b6	0.7559618
27	0xbdc07674	-0.09397593
28	0xbea9556b	-0.3307298
29	0x3e649bff	0.22325133
30	0xbfa1a9ea	-1.2629979
31	0xbe8d5f65	-0.27611843
32	0x3d139b24	0.036036626
33	0xbeae6c69	-0.34067085
34	0xbe84d382	-0.25942618
35	0xbf132376	-0.57475984
36	0xbdc884d1	-0.09790958
37	0x3e9e8413	0.3096014
38	0x3cec517e	0.028847452
39	0x3dc22572	0.094797984
40	0x3eca6525	0.39530292
41	0xbea993d3	-0.33120593
42	0xbec686f2	-0.3877483
43	0x3eeaf489	0.4588969
44	0xbd253b2e	-0.04033964
45	0xbe83c12c	-0.25733316
46	0x3eeacbda	0.4585865
47	0x3e9d1a9b	0.3068436
48	0x3c3d19a4	0.011541758
49	0x3dbff475	0.09372798
50	0xbf15689c	-0.58362746
51	0xbec80566	-0.3906662
52	0xbf008a69	-0.502112
53	0x3ee3bb48	0.44478822
54	0x3e1a9aaf	0.1509807
55	0xbf1ff1ad	-0.6247814
56	0x3f12ddda	0.5736977
57	0xbd877ddf	-0.06615805
58	0xbded986f	-0.1160134
59	0x3ea8d069	0.32971504
60	0xbd9acf0d	-0.07559023
61	0xbdc9dda1	-0.098567255
62	0x3e28da85	0.16489609
63	0xbe814c51	-0.25253537
64	0x3ea938e8	0.3305123
65	0x3f01b134	0.50661016
66	0x3dc5bd30	0.09655225
67	0x3e8fee25	0.28111377
68	0x3e20bd7f	0.15697287
69	0xbef44d56	-0.47715253
70	0xbe6b11c7	-0.22956
71	0x3dc3f18a	0.09567554
72	0xbf20cee3	-0.62815684
73	0xbe9b8d0d	-0.3038105
74	0x3eea8e79	0.45811823
75	0xbdf2d78c	-0.118575186
76	0x3cc7aabc	0.024373405
77	0x3e66057e	0.22463033
78	0xbda81b76	-0.08208363
79	0x3e260e00	0.16216278
80	0xbe3b12fe	-0.18268964
81	0x3e15527f	0.14582251
82	0x3e96f213	0.29481563
83	0xbd50aaf7	-0.050944295
84	0x3d2875ff	0.041128155
85	0x3cdb6263	0.026780313
86	0x3ddc73d6	0.107642815
87	0xbce2f9c9	-0.027706997
88	0xbea3e9ae	-0.3201422
89	0xbe84fd55	-0.25974527
90	0xbdd73335	-0.10507814
91	0x3e425c8c	0.18980616
92	0x3e9ee742	0.3103581
93	0x3e898dc4	0.2686597
94	0x3e3664fc	0.1781196
95	0xbda1c2ad	-0.078984596
96	0xbea4523d	-0.32093993
97	0xbe25c621	-0.16188861
98	0x3e4edd3d	0.20201583
99	0x3d7e5c1b	0.062099557
100	0x3db45d98	0.08806914
101	0x3d902fd0	0.070403695
102	0xbe33b236	-0.17548451
103	0x3d414cfc	0.04719256
104	0x3dc7695c	0.097368926
105	0xbed97e21	-0.4247904
106	0xbe461f27	-0.19347821
107	0xbcc8a898	-0.024494454
108	0x3dce816a	0.100832775
109	0x3e62ea0f	0.22159599
110	0xbe612fde	-0.21990916
111	0xbe0eeb94	-0.13957053
112	0xbdb1fde5	-0.08691005
113	0x3d379ef1	0.044829313
114	0x3ef1a01e	0.47192472
115	0xbd4d8471	-0.050175134
116	0xbd05daa9	-0.032679234
117	0xbd9b2eee	-0.075773105
118	0x3b276500	0.0025542378
119	0xbe362e82	-0.17791179
120	0xbcf82282	-0.030289892
121	0xbe997245	-0.29969993
122	0x3dc71c76	0.09722225
123	0xbc3eda00	-0.011648655
124	0xbc94dece	-0.018172648
125	0xbd5badc2	-0.053632505
126	0xbeb383f8	-0.35061622
127	0xbc244dce	-0.010028316
128	0x3eb4a079	0.3527868
129	0xbe4c345a	-0.19941846
130	0xbda9dad1	-0.08293689
131	0x3e8e48fc	0.27790058
132	0xbe4cdc6a	-0.20005956
133	0xbe114c51	-0.14189269
134	0x3ec64db3	0.38731155
135	0x3ee8f21c	0.45497215
136	0x3cf7775f	0.030208288
137	0x3e66fa82	0.22556499
138	0xbe837881	-0.25677875
139	0xbd71a253	-0.058992695
140	0x3e98935b	0.29799923
141	0xbe0cae01	-0.13738252
142	0x3efa5b37	0.48897716
143	0x3e505d9f	0.20348214
144	0x3e333a1b	0.17502634
145	0xbd2dda37	-0.042444434
146	0xbcc28392	-0.023744378
147	0x3e3343a5	0.17506273
148	0xbd96afcf	-0.073577516
149	0xbd94e9c0	-0.07271147
150	0x3e90a719	0.28252485
151	0xbc3082e7	-0.010773397
152	0xbd152aa4	-0.03641762
153	0x3eb298c6	0.34882182
154	0x3df767b0	0.12080324
155	0xbe080133	-0.13281707
156	0x3d2c296b	0.042031687
157	0xbeb67588	-0.35636544
158	0x3dd67103	0.10470774
159	0x3d7cb8e3	0.06169976
160	0x3ee6b56c	0.4506029
161	0xbd5abf67	-0.05340519
162	0xbe9e205f	-0.30884072
163	0xbe0d8c75	-0.13823111
164	0xbd8946c1	-0.06702948
165	0xbe4ef061	-0.20208885
166	0x3e872cb1	0.26401284
167	0xbe0660af	-0.1312282
168	0xbdfda14e	-0.12384282
169	0x3ebe0d45	0.371195
170	0xbd80ca57	-0.06288593
171	0x3eed5d6a	0.46360332
172	0x3ed5b330	0.41738272
173	0x3e364b1e	0.17802092
174	0x3e9d3b90	0.30709505
175	0xbdfe3076	-0.12411587
176	0x3d4d889d	0.050179113
177	0x3f51c6e8	0.8194413
178	0xbe0d732f	-0.1381347
179	0x3f3fb248	0.7488141
180	0x3f5b29a6	0.85610425
181	0xbf51e3a3	-0.8198797
182	0xbdc6b718	-0.09702891
183	0x3d325974	0.04354234
184	0xbee3b4de	-0.44473928
185	0x3de74f22	0.1129439
186	0x3f29abf2	0.6627799
187	0x3d0d0fa0	0.03443873
188	0x3e331386	0.17487916
189	0x3f8006c6	1.0002067
190	0x3f1afd0d	0.60542375
191	0xbcdf4542	-0.027254704
192	0x3bde777e	0.006789147
193	0xbe179879	-0.14804257
194	0xbd69100d	-0.056900073
195	0xbe4da8c6	-0.20083913
196	0xbe87719f	-0.26453874
197	0xbdb85a5d	-0.090016104
198	0x3e507620	0.20357561
199	0x3eb5e627	0.35527155
200	0x3e907a78	0.28218436
201	0x3d0ec3b1	0.034854595
202	0xbdf99484	-0.1218653
203	0xbe53b8bf	-0.20675944
204	0xbe5c3709	-0.21505369
205	0x3d788289	0.060671363
206	0x3e3b8336	0.18311772
207	0xbe3c4358	-0.18385065
208	0xbe53fdd6	-0.207023
209	0xbd7503b2	-0.059817977
210	0xbe3d5a72	-0.18491533
211	0xbdc550e7	-0.096345715
212	0xbe02ced0	-0.12774205
213	0xbdbf8349	-0.093512125
214	0xbd1961e6	-0.03744688
215	0xbc6c1e05	-0.014411454
216	0x3e243ef5	0.16039641
217	0xbe38960c	-0.18025988
218	0x3e1e30ea	0.15448347
219	0xbe556b51	-0.20841719
220	0xbe196df2	-0.14983347
221	0x3eb73d8b	0.3578914
222	0xbe9650bf	-0.2935848
223	0xbdcb5f16	-0.099302456
224	0x3e2b6a0b	0.16739671
225	0xbdae2a6c	-0.08504185
226	0xbccd0651	-0.025027426
227	0xbe421246	-0.18952283
228	0x3e1e06ee	0.15432331
229	0xbd4efe03	-0.050535213
230	0x3e7b335f	0.24531315
231	0x3ec80395	0.39065233
232	0xbd6576ce	-0.056021504
233	0x3ea4f992	0.32221657
234	0xbc4663bc	-0.012108739
235	0x3eba3063	0.3636504
236	0x3ec7412e	0.38916916
237	0xbe48a81a	-0.19595376
238	0x3e4959d1	0.19663168
239	0x3e4bd5df	0.19905804
240	0x3e69f475	0.22847159
241	0xbaad4bf4	-0.0013221488
242	0xbe9959a3	-0.299512
243	0xbe824ce7	-0.25449297
244	0xbe99c8c9	-0.30036
245	0x3eaf5776	0.34246415
246	0x3e95a2c8	0.29225755
247	0xbecc6bee	-0.39926094
248	0x3e8c4f9b	0.27404484
249	0x3d02b485	0.031910438
250	0xbe9d8ccc	-0.30771482
251	0x3e89b8e8	0.26898885
252	0x3d92ba6b	0.07164463
253	0xbf04809e	-0.51758754
254	0x3ed3004a	0.41211158
255	0x3e9b4183	0.3032342

bias f4 [16]
0	0x3e2423fa	0.16029349
1	0x3e0e47e5	0.13894613
2	0xbea16741	-0.3152409
3	0x3ee6a993	0.4505125
4	0x3dd95ff2	0.10614003
5	0x3d132299	0.035921667
6	0xbe22e3eb	-0.15907256
7	0xbe14e6c8	-0.14541161
8	0xbd225369	-0.039630327
9	0xbc9e2d58	-0.019308731
10	0x3e54d433	0.20784073
11	0xbdf6d7ef	-0.12052905
12	0xbe8fc47b	-0.2807959
13	0xbd035674	-0.03206487
14	0xbec19164	-0.37806237
15	0x3dbf91ba	0.09353967

weight f4 [16, 16]
0	0xbe925068	-0.2857697
1	0x3d931839	0.071823545
2	0x3d3b3f8c	0.0457149
3	0xbe38d222	-0.1804891
4	0x3e23303d	0.1593637
5	0xbc499af2	-0.012305008
6	0xbe49a4cd	-0.19691773
7	0xbec128c0	-0.37726402
8	0x3f66ddd9	0.9018226
9	0x3ea52b1b	0.3225945
10	0x3ec156f3	0.3776165
11	0xbe337473	-0.1752489
12	0x3e633fb2	0.22192267
13	0xbe9cc062	-0.30615526
14	0xbda461fd	-0.08026502
15	0x3e2eafaf	0.17059205
16	0x3d04690f	0.032326754
17	0xbe8bbf50	-0.27294397
18	0xbe129940	-0.14316273
19	0xbe368e66	-0.17827758
20	0xbd7ff7a3	-0.062492024
21	0xbe20291a	-0.15640679
22	0xbe1a6987	-0.15079318
23	0xbd8497ec	-0.06474289
24	0x3ef40742	0.47661787
25	0x3df886dd	0.12135098
26	0x3eb3b0c8	0.3509581
27	0xbf025076	-0.50904024
28	0xbd22bf8e	-0.039733462
29	0x3e2cf50c	0.16890353
30	0x3eb87c58	0.36032367
31	0x3d8301bc	0.06396815
32	0xbd65416a	-0.055970587
33	0xbd4c40ce	-0.04986649
34	0x3e83fcd1	0.2577882
35	0x3db89006	0.09011845
36	0x3dfbed9a	0.12301178
37	0x3e37e047	0.17956649
38	0x3ed0f461	0.40811446
39	0x3e91f17d	0.28504553
40	0xbf45f2b2	-0.7732345
41	0xbe83219b	-0.25611576
42	0xbee61e7a	-0.44945127
43	0xbda0a5e8	-0.07844144
44	0x3dcc34c0	0.09970999
45	0x3cc1db04	0.023664005
46	0xbe5fcd29	-0.21855606
47	0xbd9a33f3	-0.0752944
48	0x3e7e573c	0.24837965
49	0x3dd64396	0.1046211
50	0x3d9a6f2f	0.07540738
51	0x3e834555	0.25638834
52	0xbe47ce7a	-0.19512358
53	0xbde42eec	-0.11141762
54	0xbda0b01d	-0.07846091
55	0xbe4bf52b	-0.19917743
56	0x3cd826ee	0.02638575
57	0xbe9a4059	-0.30127218
58	0xbd0521fb	-0.03250311
59	0xbe119323	-0.14216284
60	0x3e83914a	0.25696784
61	0xbcb48dae	-0.022040214
62	0xbce7ae39	-0.028281318
63	0x3ec70380	0.38869858
64	0x3e9526e8	0.29131246
65	0xbec567c4	-0.3855573
66	0x3ebc2815	0.3674933
67	0x3e59ed44	0.21281916
68	0xbecbb939	-0.3978975
69	0xbd840f23	-0.064481996
70	0x3d65f3c9	0.056140695
71	0xbe12a6f8	-0.14321506
72	0x3f0734c0	0.52814865
73	0x3dd0aadc	0.10188839
74	0xbea3b85f	-0.319766
75	0x3ccb54d0	0.024820715
76	0x3ec0ff26	0.37694663
77	0x3e560307	0.20899592
78	0x3e3e4441	0.18580724
79	0xbb669fa8	-0.0035190377
80	0x3e603755	0.21896107
81	0x3da205bc	0.0791125
82	0x3ded301e	0.11581443
83	0x3d2088a5	0.039192814
84	0xbdbc8b8c	-0.09206304
85	0x3da0e0c0	0.07855368
86	0x3e3f804e	0.18701288
87	0x3db2ed10	0.08736622
88	0xbed5b7d9	-0.41741827
89	0xbe2f831a	-0.17139855
90	0xbebf9658	-0.3741939
91	0x3e02534a	0.12727085
92	0xbcce12a4	-0.025155373
93	0xbd942d7c	-0.07235238
94	0xbe855d77	-0.2604787
95	0xbeabffed	-0.33593693
96	0xbe2ecd17	-0.17070423
97	0x3d21d46f	0.039509233
98	0x3e295c5c	0.16539139
99	0x3cf8ce66	0.030371856
100	0xbe23f53c	-0.16011518
101	0x3e4386f2	0.19094446
102	0x3e34923c	0.17633909
103	0x3e445796	0.19174036
104	0xbef2a7bb	-0.47393593
105	0xbe212dde	-0.15740153
106	0xbeb3ea2e	-0.35139602
107	0x3e8a06c2	0.2695828
108	0xbde6e2f5	-0.11273757
109	0x3e9e5f54	0.30932105
110	0xbec5d81f	-0.3864145
111	0x3da51358	0.0806033
112	0x3e8ed36b	0.27895674
113	0xbe5965b6	-0.21230206
114	0x3e4c047f	0.1992359
115	0xbadd5197	-0.0016885278
116	0xbe37e144	-0.17957026
117	0xbe93014c	-0.28711927
118	0xbcebe48f	-0.028795509
119	0xbe30b956	-0.172582
120	0xbd4277f4	-0.047477677
121	0x3e1bace5	0.15202673
122	0x3d651107	0.05592444
123	0x3cf7e6ba	0.030261386
124	0xbc730f76	-0.014835229
125	0x3e42a21c	0.19007152
126	0x3cda7080	0.026664972
127	0x3e9c431a	0.30519944
128	0x3d8c5dd9	0.068538375
129	0xbd789788	-0.060691386
130	0xbd18668f	-0.037207182
131	0xbcba259d	-0.022723014
132	0xbe07868a	-0.13234916
133	0x3d9e95fe	0.077434525
134	0x3e1b6133	0.15173797
135	0x3e90f8ad	0.28314725
136	0x3f38aa15	0.72134525
137	0x3d10ea25	0.035379548
138	0x3dbb0c4d	0.091332056
139	0xbe5c9993	-0.21542959
140	0x3e05838c	0.13038462
141	0xbe513207	-0.2042924
142	0x3e7eb764	0.24874645
143	0xbe0b66bf	-0.13613413
144	0xbd9e4b68	-0.07729226
145	0xbea7fc5f	-0.3280973
146	0xbccd015f	-0.025025068
147	0xbdb07d78	-0.08617681
148	0xbe22261e	-0.15834853
149	0xbd166ac7	-0.036722925
150	0xbdc9e118	-0.09857386
151	0xbda8a2ca	-0.082341745
152	0x3f12b4e0	0.57307243
153	0xbda8cd64	-0.082423
154	0x3e07456f	0.1321008
155	0xbdf162b6	-0.11786406
156	0x3dda6b61	0.10665012
157	0x3ea16209	0.31520107
158	0xbc382cd7	-0.011241159
159	0x3e7a5e38	0.24450004
160	0xbe414267	-0.18872987
161	0x3e8bdf1c	0.27318656
162	0xbe96511e	-0.29358763
163	0xbf582f6b	-0.84447354
164	0x3e7fa530	0.24965358
165	0x3ef10c21	0.47079566
166	0x3c9ef424	0.019403525
167	0x3ee777f9	0.4520872
168	0xbeb1e27b	-0.34743103
169	0xbedac6f9	-0.4272993
170	0xbc8338f5	-0.01601837
171	0x3e844138	0.25831008
172	0xbe29e8a6	-0.16592655
173	0xbe0ef17d	-0.13959308
174	0xbcdfaf93	-0.0273054
175	0xbf21ebe2	-0.63250554
176	0xbdbacd68	-0.091212094
177	0xbd00bb4c	-0.03142862
178	0xbe89cbef	-0.269134
179	0xbea3a875	-0.3196446
180	0xbdb9d79e	-0.09074329
181	0x3e5bca2c	0.21463841
182	0xbe748d61	-0.23882057
183	0x3e0c739d	0.13715978
184	0x3e4d24bc	0.20033544
185	0xbe2a5220	-0.1663289
186	0xbe215f1a	-0.15758935
187	0x3d827582	0.06370069
188	0xbb384f3c	-0.00281234
189	0x3b1d2eb9	0.0023984148
190	0xbe6de737	-0.23232733
191	0xbed380a0	-0.4130907
192	0x3f1b7169	0.60719925
193	0xbee9b9e4	-0.45649636
194	0x3f294e10	0.6613474
195	0x3db2b9dd	0.08726857
196	0xbf133d59	-0.57515484
197	0xbeb72f29	-0.35778168
198	0x3e08781f	0.13327073
199	0xbb3bc8e1	-0.0028653669
200	0x3f31a1fb	0.6938779
201	0xbc676042	-0.014122071
202	0xbd18f1cb	-0.037339967
203	0xbe312559	-0.17299403
204	0x3ebdf8b2	0.37103802
205	0x3e8e6e06	0.27818316
206	0xbe0735cd	-0.13204117
207	0x3e11c821	0.142365
208	0xbe14fbf6	-0.1454924
209	0xbdb0a0c7	-0.08624416
210	0x3d01c3f4	0.031681016
211	0x3eb4586a	0.35223705
212	0x3da86f25	0.08224324
213	0xbe138bc4	-0.14408785
214	0xbe0f0b2a	-0.13969103
215	0x3e8bcf96	0.27306813
216	0xbf651c11	-0.8949595
217	0xbebdbe76	-0.37059373
218	0xbe85b0c7	-0.26111433
219	0xbdb40be9	-0.08791334
220	0xbe82ebe0	-0.25570583
221	0x3e729271	0.23688675
222	0xbe9653f2	-0.2936092
223	0xbdd2a137	-0.102846555
224	0xbe000a26	-0.12503871
225	0x3e64d963	0.22348551
226	0xbcac9549	-0.021067278
227	0x390d900a	0.00013500467
228	0xbe171aa1	-0.14756252
229	0xbe3a2af0	-0.18180442
230	0xbe7481fc	-0.2387771
231	0xbe76222a	-0.2403647
232	0x3f5e363a	0.86801493
233	0x3e8a0ae8	0.26961446
234	0x3ee458eb	0.4459909
235	0x3bd61d7b	0.006534276
236	0xbdefdd30	-0.1171211
237	0x3c98cea7	0.018653227
238	0xbcb86494	-0.022508897
239	0x3d7ec1c6	0.062196516
240	0x3e6be432	0.23036268
241	0xbdeb4f02	-0.11489679
242	0xbdd114c2	-0.10209037
243	0x3d782152	0.06057865
244	0xbcd78302	-0.026307587
245	0x3e872f5f	0.2640333
246	0xbe92ef26	-0.2869808
247	0xbd1513d2	-0.036395855
248	0x3e5ae8b6	0.21377835
249	0x3e5ea129	0.21741165
250	0x3e2d2014	0.16906768
251	0xbea73ab2	-0.32661968
252	0x3e19deed	0.15026446
253	0xbddb80c0	-0.107179165
254	0x3e3c116c	0.18366021
255	0x3d7a0470	0.06103939

bias f4 [16]
0	0xbd908e4a	-0.070583895
1	0x3e38d84c	0.1805126
2	0x3e212522	0.15736821
3	0x3ca46d4f	0.020071654
4	0xbc88613d	-0.01664793
5	0x3e1a60df	0.15076016
6	0x3cd82170	0.026383132
7	0x3e08dfc2	0.13366607
8	0xbddfae83	-0.10921957
9	0x3e1a7abd	0.15085883
10	0xbe35c3aa	-0.17750421
11	0x3d8c133f	0.068396084
12	0xbda100c0	-0.07861471
13	0x3e682d16	0.22673449
14	0x3e02abbc	0.12760824
15	0xbde3df48	-0.11126572

weight f4 [16, 16]
0	0x3e74dc69	0.23912205
1	0x3e20668f	0.15664123
2	0xbecbba01	-0.39790347
3	0x3c750b59	0.014956319
4	0xbe030831	-0.12796094
5	0xbec69b9b	-0.38790593
6	0xbee1680f	-0.44024703
7	0xbc822eb7	-0.015891416
8	0xbe529442	-0.20564368
9	0x3e19c27a	0.15015593
10	0x3e7cfac3	0.24705033
11	0x3e1c4bea	0.15263334
12	0xbe6cf3bd	-0.23139854
13	0xbea89c21	-0.32931617
14	0x3ece3637	0.40275738
15	0x3dd7d008	0.10537726
16	0xbda107ab	-0.07862791
17	0x3c892d17	0.016745133
18	0x3da0251f	0.0781958
19	0xbdf7ada1	-0.12093664
20	0x3a6eb686	0.00091061776
21	0xbd471ebb	-0.04861329
22	0xbeaebe28	-0.34129453
23	0x3e4645dc	0.19362587
24	0xbddf5a11	-0.10905851
25	0xbd5305b5	-0.051519115
26	0xbe1aa9d9	-0.15103854
27	0xbdf32b08	-0.11873442
28	0xbe630739	-0.22170724
29	0xbe9afb38	-0.3026979
30	0x3d390411	0.045169894
31	0x3d03a503	0.03213979
32	0xbddfb33f	-0.1092286
33	0xbe7977dc	-0.24362129
34	0x3e8d5056	0.27600354
35	0x3de32e11	0.11092771
36	0xbad2e159	-0.0016088887
37	0x3e7e3392	0.2482436
38	0xbc4d7221	-0.0125394175
39	0xbe55f5f9	-0.20894612
40	0xbe050d99	-0.12993468
41	0x3d3abfdb	0.045593124
42	0x3d8cba09	0.06871421
43	0x3e36bd0a	0.1784555
44	0x3e4cabb5	0.19987376
45	0x3e8d5daf	0.27610537
46	0x3e32ea49	0.17472185
47	0xbe1e2ab9	-0.15445985
48	0xbd0f4fda	-0.03498826
49	0xbe82b168	-0.25525975
50	0xbe2c3832	-0.16818312
51	0x3d077ae3	0.03307618
52	0xbe13612f	-0.14392541
53	0x3cb02d87	0.021506084
54	0xbb87f42c	-0.0041489806
55	0x3e9e46f8	0.3091352
56	0x3c48d111	0.012256877
57	0x3e2dc977	0.16971384
58	0xbe289200	-0.16461945
59	0xbe473c1f	-0.19456528
60	0x3ea51738	0.32244277
61	0xbda70e73	-0.08157053
62	0x3e1152c6	0.14191732
63	0x3e893a76	0.26802415
64	0xbe504ead	-0.20342512
65	0xbdc6dd62	-0.09710194
66	0xbdc15d9d	-0.094416834
67	0xbe53438d	-0.20631237
68	0xbd7ae903	-0.061257374
69	0x3de0da57	0.10979145
70	0x3e043f31	0.1291473
71	0x3e63b8b7	0.22238432
72	0xbe4b6abb	-0.19864933
73	0x3d58febf	0.05297732
74	0xbe6d4082	-0.23169139
75	0x3ddbdd14	0.10735527
76	0x3e14a3f2	0.14515665
77	0xbb39e6f1	-0.0028366412
78	0x3d5855e9	0.052816305
79	0xbdecf002	-0.11569215
80	0x3e1b6667	0.15175782
81	0x3e6a8147	0.22900878
82	0xbd8e1d74	-0.069392115
83	0xbcdeaba1	-0.027181448
84	0xbd987f9c	-0.074462146
85	0xbe894cb7	-0.2681634
86	0xbdb97674	-0.09055796
87	0xbe2c0e66	-0.16802368
88	0x3da41718	0.08012217
89	0xbca98191	-0.020691665
90	0xbd0367d8	-0.032081455
91	0xbe0428a4	-0.12906128
92	0x3dc85a2c	0.09782824
93	0x3e34e6bf	0.17666148
94	0xbd900df8	-0.07033914
95	0x3bf6cd9f	0.007531836
96	0xbe308cd8	-0.17241228
97	0x3da5a76e	0.08088575
98	0xbd9a369e	-0.07529949
99	0x3d890de4	0.066921026
100	0xbb5a6b5d	-0.0033328154
101	0xbd618e2a	-0.05506722
102	0xbc8a47e7	-0.016879989
103	0x3c5b055d	0.013367978
104	0xbe920250	-0.2851739
105	0xbb0038b3	-0.0019565045
106	0xbe112ae0	-0.14176512
107	0x3e86ef56	0.26354474
108	0x3ddd961e	0.10819648
109	0xbcddc312	-0.027070556
110	0xbdd9df24	-0.10638264
111	0xbd407d2c	-0.046994373
112	0xbe5eb84e	-0.21749994
113	0xbe8a3123	-0.26990613
114	0x3dd880ba	0.10571428
115	0xbe4a655e	-0.19765231
116	0x3e3bb2d5	0.18329938
117	0xbcc865ea	-0.024462659
118	0x3edb7a26	0.4286663
119	0xbc2beaa1	-0.010492952
120	0xbe6d738d	-0.2318861
121	0xbe2ffb3c	-0.17185682
122	0xbe84a960	-0.25910473
123	0xbdb6a726	-0.089186
124	0xbe4fb1bd	-0.20282646
125	0x3eaa10e9	0.33216026
126	0xbdbe7294	-0.09299198
127	0xbe105318	-0.14094198
128	0x3ed75357	0.4205577
129	0x3e8ab526	0.2709133
130	0xbe87aa46	-0.26497096
131	0xbdbfbd3f	-0.09362268
132	0xbe60d3ee	-0.21955845
133	0xbdf46e29	-0.11935074
134	0xbda62b8a	-0.08113773
135	0x3cc55911	0.024090322
136	0xbd5abf1a	-0.053404905
137	0xbd6f7c59	-0.058468197
138	0xbcc956ba	-0.024577487
139	0xbd178ca8	-0.036999375
140	0x3d7b8358	0.061404556
141	0xbe6310c2	-0.22174361
142	0x3e82b0f5	0.25525633
143	0xbcd6e64e	-0.026232865
144	0x3dcc8657	0.09986561
145	0x3cd9145e	0.02649897
146	0xbeb60f15	-0.35558382
147	0xbdd1a088	-0.10235697
148	0xbe759441	-0.23982336
149	0xbe0bd6ae	-0.13656113
150	0xbeca0536	-0.394571
151	0xbe357c9d	-0.17723317
152	0xbde9b8da	-0.11412211
153	0xbe3c5848	-0.18393052
154	0xbdfc8d15	-0.12331597
155	0xbe983c4c	-0.29733503
156	0xbe3d2923	-0.18472724
157	0xbda07856	-0.07835452
158	0x3e2b2955	0.16714986
159	0xbe026298	-0.12732923
160	0x3ea0e3fa	0.31423932
161	0xbe2c9a1d	-0.16855665
162	0x3d80bdc1	0.06286193
163	0x3e522c92	0.20524815
164	0xbe7fba8e	-0.24973509
165	0xbe081012	-0.1328738
166	0xbed3e2e0	-0.4138403
167	0x3e877e19	0.26463392
168	0xbcecf951	-0.028927477
169	0x3e129934	0.14316255
170	0x3e401d09	0.18761076
171	0xbc5eeb7d	-0.0136059495
172	0xbe8c1316	-0.2735831
173	0xbdb9d92e	-0.09074627
174	0xbe075c74	-0.13218862
175	0x3e92982d	0.28631726
176	0xbd43dc17	-0.047817316
177	0x3e7e2206	0.24817666
178	0xbd9d9b45	-0.07695631
179	0xbdb5a450	-0.08869231
180	0xbda44a27	-0.08021956
181	0xbe221552	-0.15828446
182	0xbe16d409	-0.14729322
183	0x3e62696b	0.22110526
184	0xbda60ad5	-0.08107535
185	0xbe1eba93	-0.1550086
186	0x3e11b33d	0.1422853
187	0xbe028ed3	-0.12749796
188	0x3d7b9aca	0.061426915
189	0x3cf71722	0.030162398
190	0x3e2d5905	0.1692849
191	0x3e42b052	0.19012573
192	0x3e782d0a	0.24235931
193	0xbe0bd1d4	-0.13654262
194	0xbeb3c3f5	-0.3511044
195	0xbe25a345	-0.16175564
196	0xbe6ca722	-0.23110631
197	0x3c6f8dc9	0.014621207
198	0xbea4fdf3	-0.32224998
199	0x3e03d9e8	0.12876093
200	0xbca0578a	-0.019572992
201	0x3e454a68	0.19266665
202	0x3de0dfb4	0.10980168
203	0xbd55e42f	-0.052219566
204	0xbe064dfa	-0.13115683
205	0xbdbbc31d	-0.09168074
206	0x3e99b428	0.3002026
207	0x3e536679	0.20644559
208	0xbe668222	-0.22510579
209	0xbe56dba7	-0.20982228
210	0x3ea27670	0.31730986
211	0xbe6dbfab	-0.23217647
212	0xbcc0924c	-0.02350726
213	0x3e0188fe	0.12649915
214	0x3e999120	0.29993534
215	0xbe6fe4ba	-0.23427096
216	0xbea191f4	-0.31556666
217	0x3cf2ad3a	0.029623616
218	0xbe3475ff	-0.17623137
219	0x3e95e0f5	0.2927319
220	0x3dc21bbf	0.094779484
221	0xbdd0d1b0	-0.10196245
222	0xbe9c3737	-0.30510876
223	0x3d7aa1fa	0.06118963
224	0x3ea24624	0.31694138
225	0xbde0219d	-0.10943911
226	0xbe14aabc	-0.14518255
227	0xbe6e94ae	-0.23298904
228	0x3e1b04f4	0.15138608
229	0x3e457188	0.1928159
230	0xbea17cad	-0.31540433
231	0xbe02386e	-0.12716839
232	0x3e26067a	0.16213408
233	0x3d50306b	0.050827425
234	0x3e4cece4	0.20012242
235	0x3e653334	0.22382814
236	0xbe44dd2c	-0.19224995
237	0x3e094494	0.13405067
238	0x3e3152a2	0.17316678
239	0xbe5b532c	-0.21418446
240	0xbec6ac0d	-0.3880314
241	0xbd99a7df	-0.07502722
242	0x3e9b0485	0.30276886
243	0xbe62afaa	-0.22137323
244	0x3e10f2f6	0.14155182
245	0xbd9ac0e9	-0.07556326
246	0x3ea776c9	0.32707813
247	0xbd939af8	-0.07207292
248	0xbe196d53	-0.1498311
249	0x3e06644b	0.13124196
250	0xbddc3d99	-0.10753936
251	0xbe02613c	-0.12732404
252	0x3e5a3b7d	0.21311755
253	0x3e264598	0.16237485
254	0xbdc6d04c	-0.09707698
255	0xbe19e7a7	-0.15029775

bias f4 [16]
0	0xbd7c87da	-0.061652996
1	0xbe59ab20	-0.21256685
2	0x3e0e9ca2	0.13926938
3	0x3e163406	0.14668283
4	0x3e1ab9bb	0.15109913
5	0x3c119d89	0.008887657
6	0x3c4a694b	0.012354205
7	0x3e38692f	0.18008874
8	0xbe5457b2	-0.20736578
9	0x3e57b64a	0.21065632
10	0x3e6073c1	0.21919157
11	0xbc8cd374	-0.017190672
12	0xba1cef64	-0.00059866
13	0xbdf41e80	-0.1191988
14	0xbe2c1ad7	-0.16807114
15	0x3e0b809b	0.13623278
